python/mnist.tflite (tflite, 116808 bytes, 6 tensors)

sequential_1/dense_1/BiasAdd/ReadVariableOp f4 [10]
000000 c8 06 d0 bb cf 27 26 3e 4e 64 50 3d cc a0 16 bd
       -0.0063484646 0.16226123 0.050876908 -0.03677444
000010 62 d5 b1 bc 70 81 1f 3d bb 46 86 bc f4 29 63 3d
       -0.021708194 0.0389418 -0.016391149 0.05545993
000020 c5 93 00 be 5d 93 4b bd
       -0.1255637 -0.049701083

sequential_1/conv2d_2/BiasAdd/ReadVariableOp f4 [32]
000000 ae 94 27 bc f0 2c 6e bc 00 00 00 00 b2 75 84 bd
       -0.010228319 -0.014537081 0.0 -0.06467761
000010 e6 ab 0b bd 46 5c 41 bc 15 0e 09 bc 87 f7 9a 3d
       -0.034099482 -0.011801785 -0.008365174 0.07566743
000020 bb 69 89 bb 00 00 00 00 19 e4 b6 3d 58 02 d8 bc
       -0.0041935123 0.0 0.08930225 -0.026368305
000030 21 f9 b3 bc ad 8e 0f bd 8b 16 70 bc 60 d2 dc bb
       -0.02196938 -0.035048176 -0.014653812 -0.006738946
000040 40 ad 02 be 86 a6 84 3c e2 00 14 bd d5 61 c5 bc
       -0.12761402 0.016192686 -0.036133654 -0.024094502
000050 be 92 36 3d c2 d6 0d bc 78 09 b0 38 29 5a b4 bc
       0.044573538 -0.008657159 8.394098e-05 -0.022015648
000060 cb 22 01 be 19 1b b1 3c 31 2d 52 3d 40 77 52 bd
       -0.12610929 0.021619366 0.05131263 -0.051383257
000070 fe 2d eb 3c 0e 01 29 3d c6 b8 33 bd 49 62 4c bd
       0.028708454 0.04126077 -0.043877386 -0.04989842

sequential_1/conv2d_3/BiasAdd/ReadVariableOp f4 [64]
000000 d6 80 4f 3c be 76 63 bc 97 cd 39 bd 6d e8 d6 bc
       0.012664994 -0.013883291 -0.04536208 -0.026233876
000010 87 f8 62 bc 69 d8 57 bd 75 1f 47 3c 41 b0 f4 3c
       -0.013853199 -0.05269662 0.012153496 0.0298692
000020 d3 0c f4 bc 70 36 df 3c ae 34 22 bd 88 df 36 3a
       -0.029791271 0.027247638 -0.03960102 0.0006976058
000030 a1 0f 14 bd ff 50 84 3c fa b2 8a bd 64 2f 57 3c
       -0.036147717 0.016151903 -0.06772418 0.013133857
000040 f0 c7 cd bc 09 09 da 3b a2 a2 a0 bc 66 24 0b bc
       -0.025119752 0.006653909 -0.0196088 -0.008492565
000050 4e 36 7e bc 6c 9b be bc fb 85 1b 3c 29 38 94 bb
       -0.015515877 -0.02326747 0.009492393 -0.0045232964
000060 c3 cf 89 bc 1c fa 81 bd 97 78 bb bb e2 eb 18 bd
       -0.016822701 -0.06346533 -0.0057211625 -0.03733433
000070 82 7d 66 bd ba 06 20 bd a4 dc a7 3a e3 f1 a6 3b
       -0.056272037 -0.039068915 0.0012806845 0.005094753
000080 86 59 ca 3b 77 2c f5 bc b5 d3 9f 3c 08 b0 d1 bc
       0.006175223 -0.029928429 0.01951013 -0.025596634
000090 01 92 95 bc a6 17 78 bc 4b 6c 48 3c 7b 9f b1 3b
       -0.018258097 -0.015142357 0.01223285 0.005420623
0000a0 09 6f ce 3a 82 61 66 bc 91 f1 ed 3c 04 b2 20 bc
       0.0015749644 -0.014061334 0.029045852 -0.009808067
0000b0 69 08 ac bb 6b dd 83 3c d7 7a f3 bc 8e fb 0b bc
       -0.005250026 0.016096791 -0.02972166 -0.008543862
0000c0 b0 0c 68 bc 82 27 60 bd 2d 50 d8 bb 69 8e cd bc
       -0.014163181 -0.054725178 -0.0066013546 -0.02509232
0000d0 08 29 88 bc 03 b6 41 bd c4 48 37 bc f5 57 05 3c
       -0.016621128 -0.04729272 -0.011186782 0.008138646
0000e0 6d ae f5 ba 32 b6 e3 bc 8b 18 5d bc 9a bc 2b 3d
       -0.0018744 -0.027796838 -0.013494621 0.04192791
0000f0 55 41 ef bc fc 62 1f bc f4 35 5d bc d7 60 26 bc
       -0.029205957 -0.00972819 -0.013501633 -0.010154924

sequential_1/conv2d_2/Conv2D f4 [32, 3, 3, 1]
000000 08 b9 19 bb 8d 5a 7f be a7 02 c9 bd b7 f8 6a 3c
       -0.0023456234 -0.24936886 -0.09814959 0.014341525
000010 87 c7 f0 bd fb 6a 5f bd c1 b8 16 3e fc fb 81 3e
       -0.11756807 -0.054545384 0.14718916 0.2538756
000020 68 3c 56 3e 76 c2 76 3e 9c 04 7d 3d de 2e 73 bd
       0.2092148 0.24097618 0.061771974 -0.059370868
000030 86 68 2e bd 42 65 cf 3d 80 0e 4b 3e 2a e1 a5 be
       -0.04258015 0.10126735 0.1982975 -0.3239835
000040 49 e0 cf bd 5f 8d 44 bd 78 5a e5 bd 14 49 e1 bc
       -0.10150201 -0.047986384 -0.11198896 -0.027500667
000050 2c b6 5e bd 84 fd e8 bd 99 68 eb bd a0 16 db bd
       -0.05437295 -0.11376479 -0.1149456 -0.10697675
000060 b9 a5 0d be b3 2d 01 be 06 df 20 bd a9 10 12 3e
       -0.1383275 -0.12615089 -0.03927519 0.14264168
000070 cc 7c d4 bd 17 ad 29 be c1 99 f2 3d d0 7f 94 bc
       -0.103753656 -0.16569935 0.118457325 -0.018127352
000080 80 0d 08 3d e8 7d 44 3d aa 17 a2 3c 4d 42 c7 3c
       0.033216 0.047971636 0.019786675 0.024323607
000090 41 78 79 be ee 73 6d 3d ce c3 6b 3e bf 79 d5 3d
       -0.2436228 0.057971887 0.23023912 0.10423612
0000a0 76 04 cf 3b e0 c8 ec bc ff 0a 0c 3e c0 03 c4 3d
       0.0063176705 -0.028904378 0.1367607 0.09571028
0000b0 39 90 76 be 1b c9 1b 3e 48 93 18 3e c5 61 7e 3e
       -0.24078454 0.15213434 0.14899933 0.24841984
0000c0 92 8d 50 be f3 61 58 bd 39 07 00 3e 05 bd 93 be
       -0.20366505 -0.052827787 0.12502755 -0.28855148
0000d0 04 2e 25 be ff f7 4a 3e 9d 0b cf 3d 77 3c b2 3d
       -0.16130835 0.19821166 0.10109637 0.08702939
0000e0 22 13 57 be c0 93 17 3d 5f 87 85 3d b6 80 96 be
       -0.21003392 0.03700614 0.065199606 -0.29395074
0000f0 fc 3d 9a 3e fc 05 0f bd 3f 66 d0 bd b7 c3 8d 3e
       0.30125415 -0.034917817 -0.10175752 0.2768838
000100 2f 06 32 3e 8b 76 17 3e 6f d1 26 3d 06 9b a4 3c
       0.17385171 0.14791314 0.040727075 0.020093452
000110 2b 19 29 be f9 f0 49 be db 3b ad be e1 19 9d be
       -0.16513507 -0.1972083 -0.3383473 -0.30683807
000120 fe 13 d6 3d 62 05 7d 3e d9 32 70 3d 22 0d 69 3e
       0.10453032 0.24709085 0.058642242 0.22758916
000130 33 c1 0f 3e 82 46 2c be d8 77 ea bc 1c f7 be bd
       0.14038543 -0.16823772 -0.0286216 -0.09324476
000140 df 58 8a be 23 f5 c4 bd f3 80 0a be 06 0b c2 bd
       -0.27020928 -0.096170686 -0.13525753 -0.09474759
000150 8a b5 0c bd 96 c0 99 bd a2 15 c8 bd 3c ac c6 bc
       -0.034352817 -0.07507436 -0.09769751 -0.02425205
000160 5e 94 1a bd d5 37 ac bd f3 91 9f be 0d 80 e2 be
       -0.03773915 -0.084090866 -0.31166038 -0.4423832
000170 83 89 d3 bd 4a 26 9d be d6 47 ff bd 8c 2b c8 3d
       -0.10328963 -0.30693275 -0.124648735 0.09773931
000180 b3 7d 66 be 60 aa ac 3d 97 32 c1 3e fe e5 6f be
       -0.22508888 0.08430934 0.3773391 -0.23427579
000190 f5 92 27 be 3c 64 08 3e c9 18 64 be 5e f9 37 bd
       -0.16364653 0.13319486 -0.2227508 -0.04491555
0001a0 8c 53 66 3d e7 f5 8e bc c2 79 04 3e e8 69 92 3e
       0.05623202 -0.01745124 0.12937072 0.28596425
0001b0 61 50 93 be d9 38 42 be 91 e3 12 bd aa 7b ee bc
       -0.28772262 -0.18966998 -0.035861555 -0.029111702
0001c0 4c d7 c5 3c dc 01 45 3e 49 86 44 3e b8 7b 47 3e
       0.024150513 0.1923899 0.1919185 0.19480789
0001d0 89 30 41 bd 04 62 28 3b 34 e0 92 3d a1 e3 99 be
       -0.047165427 0.0025693187 0.071716696 -0.3005648
0001e0 4e 1f 8a 3e ce 70 0a bd f3 17 6b be 2d 05 80 3e
       0.2697701 -0.033798985 -0.22958355 0.2500395
0001f0 0d 09 1b 3e 35 cf b1 3d 32 19 47 be 24 b0 73 be
       0.15140171 0.086821 -0.19443205 -0.23797661
000200 81 cc 65 3d ae 26 65 bd 20 1e 27 3e 5a 74 8a 3e
       0.056103233 -0.05594509 0.16320086 0.27041894
000210 9c 61 c0 3c a2 05 88 bd 94 6a 9e 3d 42 75 e1 bd
       0.023484044 -0.066416994 0.07735172 -0.11008693
000220 db 0f 49 bd a5 96 da bd 5a 2b 6d bd e8 67 10 be
       -0.049087387 -0.106732644 -0.05790267 -0.14102137
000230 33 bd 1a bd c3 9d c2 bd ef 8c 85 bd cf 7d 12 ba
       -0.03777809 -0.09502747 -0.065210216 -0.0005588205
000240 3e cd 8e bd f6 6b a3 3d 07 62 1f 3c 38 61 ca 3d
       -0.069727406 0.07979576 0.009727961 0.09881824
000250 3a 0e b3 3d 95 e7 0b bd 10 b0 41 3c d6 79 64 3d
       0.08742948 -0.0341564 0.011821762 0.055780254
000260 17 48 30 bd 87 68 41 3e 90 5a 7c 3e 25 6d 0c be
       -0.0430375 0.1888753 0.24643922 -0.1371351
000270 2e 22 91 3e e2 81 a7 bb 33 72 4b be 20 d7 b5 3d
       0.2834639 -0.005111919 -0.19867782 0.088789225
000280 16 f3 10 be 83 c4 ce be 6e 70 6f be f5 19 4d be
       -0.1415523 -0.40384302 -0.23382732 -0.20029433
000290 21 a9 32 3e 88 e7 25 be ad e9 57 bc 41 e2 81 3e
       0.1744733 -0.16201603 -0.013178271 0.2536793
0002a0 3d 7e 17 3e bc 8e b6 3d 2f 0c 0c 3e d2 43 3c 3d
       0.1479425 0.08913943 0.13676523 0.045963116
0002b0 b1 f4 13 be 25 93 72 3d 98 cd e8 bd af e9 44 3e
       -0.14448811 0.05922236 -0.11367339 0.19229768
0002c0 05 c1 74 3e 8f 5f bb bc 21 ed 6b ba 4a 3b 16 be
       0.23901756 -0.022872714 -0.00089998735 -0.14671054
0002d0 df 29 d9 bd 45 4f 1d 3e a6 ad f8 3d aa e9 65 be
       -0.106036894 0.1536227 0.12142496 -0.22452417
0002e0 bd 9e cb 3d c8 a5 c3 3e fd 65 b9 be cf d2 94 be
       0.09942386 0.3821242 -0.36210623 -0.29067084
0002f0 95 7c 59 3d 3f 77 0a be 74 b8 43 be 4c e1 96 be
       0.053097326 -0.13522051 -0.19113332 -0.29468763
000300 fd 48 c3 3d 59 aa 54 bd f1 af bd 3c 04 d8 14 3e
       0.09535406 -0.05192027 0.023155184 0.14535528
000310 7c c9 22 3e bb a9 7d 3d e9 b1 f0 3d e5 43 88 3d
       0.15897173 0.061929446 0.11752684 0.06653575
000320 2b 46 2c 3e e5 80 1e bd 0f 75 14 3c a4 54 8d 3d
       0.16823642 -0.038697142 0.009061112 0.069009095
000330 5c 06 a6 3d d3 2e 6b be 83 69 50 be 73 81 b8 3c
       0.08106682 -0.22967081 -0.2035275 0.022522664
000340 28 24 11 3e 7a 06 77 3e 86 f0 96 bd 50 1d f2 3d
       0.14173949 0.24123564 -0.07370095 0.11821997
000350 93 43 d7 3d a3 5b 49 bd 24 f2 5e be 8d 6d 55 be
       0.10510936 -0.049159657 -0.21772057 -0.20842572
000360 39 51 0b 3e bb 6a 33 3c 5c 32 32 be e5 c3 2a 3d
       0.13605203 0.0109507395 -0.17402023 0.041690726
000370 1b 5e 2f 3b 54 9e c1 3d 81 45 7e 3d 68 19 c3 3d
       0.0026758972 0.09454027 0.062078003 0.0952633
000380 7c e3 9b 3d 83 07 47 be 1e 0e c6 be 8f 6c 9a be
       0.076117486 -0.19436459 -0.38682646 -0.3016095
000390 d0 48 9c 3d 52 b5 13 3e de 36 8f 3d f5 b4 85 3e
       0.076310754 0.14424637 0.06992887 0.26114622
0003a0 0d 23 f9 3c db d6 dc 3d 90 4e 8c 3e b5 f3 43 bd
       0.030412221 0.10783168 0.27403688 -0.04783984
0003b0 dc e2 b3 be b4 96 03 3e 1a f7 c4 bd 0f 0e e3 be
       -0.35134017 0.12850457 -0.096174434 -0.44346663
0003c0 55 51 b6 bd 6f 04 93 be 81 7a 9b be 1c 47 da 3d
       -0.089022316 -0.2871432 -0.303669 0.10658094
0003d0 03 89 22 3e 5b a3 22 3c 7b 8f 7a be b2 a0 22 3c
       0.15872578 0.009926642 -0.24468796 0.009926008
0003e0 0a 1e 90 bb 47 bc 2f be 7e d9 be 3d fb 5d e0 3d
       -0.004398112 -0.17161666 0.09318827 0.10955425
0003f0 ec e7 16 3d f8 45 85 3e 8a 62 75 3e 91 88 8a bd
       0.03684227 0.26029944 0.23963371 -0.06764329

sequential_1/conv2d_3/Conv2D i1 [64, 3, 3, 32]
000000 ff e2 0e 28 28 d5 2c f4 14 e9 f0 14 00 3b da e2
       -1 -30 14 40 40 -43 44 -12 20 -23 -16 20 0 59 -38 -30
000010 2e 42 f9 09 dd 37 14 02 07 10 1a 25 d5 1b 0a 24
       46 66 -7 9 -35 55 20 2 7 16 26 37 -43 27 10 36
000020 d2 12 ea 1c ed ad 1b 04 1d eb 15 02 c4 15 aa e4
       -46 18 -22 28 -19 -83 27 4 29 -21 21 2 -60 21 -86 -28
000030 01 45 c8 f2 e6 f6 07 df fc fd e7 dd c1 d5 fa 09
       1 69 -56 -14 -26 -10 7 -33 -4 -3 -25 -35 -63 -43 -6 9
000040 f1 b8 f1 f3 98 9b 15 0e c4 e5 0a a4 ea 14 9e f0
       -15 -72 -15 -13 -104 -101 21 14 -60 -27 10 -92 -22 20 -98 -16
000050 ad 07 99 97 ea e4 c4 a8 eb cd 2f 8f b8 07 15 f1
       -83 7 -103 -105 -22 -28 -60 -88 -21 -51 47 -113 -72 7 21 -15
000060 cf 31 eb 20 24 c1 07 08 31 11 b2 1e 16 20 18 03
       -49 49 -21 32 36 -63 7 8 49 17 -78 30 22 32 24 3
000070 f5 47 2c 1a b4 f6 2c 1d 0e ee 45 f2 cb 06 d3 05
       -11 71 44 26 -76 -10 44 29 14 -18 69 -14 -53 6 -45 5
000080 b5 e8 09 f5 05 b9 0f 1a 0f 08 ee f9 c7 ee a7 e5
       -75 -24 9 -11 5 -71 15 26 15 8 -18 -7 -57 -18 -89 -27
000090 0f 1e b1 e4 a4 a3 0c 03 f9 81 eb cc b2 b1 d8 1c
       15 30 -79 -28 -92 -93 12 3 -7 -127 -21 -52 -78 -79 -40 28
0000a0 94 f2 ec 02 90 8f 01 1e fb 0e 19 97 9d df 98 10
       -108 -14 -20 2 -112 -113 1 30 -5 14 25 -105 -99 -33 -104 16
0000b0 ac fd a2 aa ef 91 c3 a8 08 9d 16 99 a9 cd e0 df
       -84 -3 -94 -86 -17 -111 -61 -88 8 -99 22 -103 -87 -51 -32 -33
0000c0 cb 4f e9 e9 f5 0d ea 5a 1b e6 c0 dc e6 eb da ee
       -53 79 -23 -23 -11 13 -22 90 27 -26 -64 -36 -26 -21 -38 -18
0000d0 e6 26 d3 f3 ee cc 20 2f ed 9d 3b 06 13 96 a0 f4
       -26 38 -45 -13 -18 -52 32 47 -19 -99 59 6 19 -106 -96 -12
0000e0 b3 21 04 e3 d7 f2 d9 27 fd 17 fa b0 dc af c6 ee
       -77 33 4 -29 -41 -14 -39 39 -3 23 -6 -80 -36 -81 -58 -18
0000f0 c9 24 be b6 d5 90 fc 20 d0 8f 0f a8 e7 8e f2 fc
       -55 36 -66 -74 -43 -112 -4 32 -48 -113 15 -88 -25 -114 -14 -4

sequential_1/dense_1/MatMul i1 [10, 9216] scale=0.0049243364 zero_point=0
000000 f5 02 f9 ff fa 03 ed 07 ff 00 fd 16 00 f7 00 09
       -0.054167703 0.009848673 -0.034470357 -0.0049243364 -0.029546019 0.014773009 -0.093562394 0.034470357 -0.0049243364 0.0 -0.014773009 0.108335406 0.0 -0.044319026 0.0 0.044319026
000010 fd fd f8 fd f9 f9 03 05 f2 f9 0d fc 02 ff 02 f5
       -0.014773009 -0.014773009 -0.03939469 -0.014773009 -0.034470357 -0.034470357 0.014773009 0.024621682 -0.068940714 -0.034470357 0.06401637 -0.019697346 0.009848673 -0.0049243364 0.009848673 -0.054167703
000020 01 07 f8 fd 31 ee 03 e1 f6 02 ff fe ff e9 f8 fc
       0.0049243364 0.034470357 -0.03939469 -0.014773009 0.24129249 -0.08863805 0.014773009 -0.15265442 -0.049243364 0.009848673 -0.0049243364 -0.009848673 -0.0049243364 -0.11325974 -0.03939469 -0.019697346
000030 08 f5 fe f6 fd f0 ff fc f4 fd fd 01 f9 fe fc ed
       0.03939469 -0.054167703 -0.009848673 -0.049243364 -0.014773009 -0.07878938 -0.0049243364 -0.019697346 -0.059092037 -0.014773009 -0.014773009 0.0049243364 -0.034470357 -0.009848673 -0.019697346 -0.093562394
000040 01 fa fc 04 fa fe d8 ec fc f1 fb fd 00 fc fa f8
       0.0049243364 -0.029546019 -0.019697346 0.019697346 -0.029546019 -0.009848673 -0.19697346 -0.09848673 -0.019697346 -0.07386505 -0.024621682 -0.014773009 0.0 -0.019697346 -0.029546019 -0.03939469
000050 ef ff 00 f9 f2 fa 00 03 fb 00 ff f8 fc fe 06 ef
       -0.08371372 -0.0049243364 0.0 -0.034470357 -0.068940714 -0.029546019 0.0 0.014773009 -0.024621682 0.0 -0.0049243364 -0.03939469 -0.019697346 -0.009848673 0.029546019 -0.08371372
000060 01 05 f8 fb 1f f2 f7 e7 f0 fd e9 fe fc 03 f8 fc
       0.0049243364 0.024621682 -0.03939469 -0.024621682 0.15265442 -0.068940714 -0.044319026 -0.12310841 -0.07878938 -0.014773009 -0.11325974 -0.009848673 -0.019697346 0.014773009 -0.03939469 -0.019697346
000070 ff f4 00 f1 ef ed f1 f3 01 fb fe ee f6 f7 f5 e2
       -0.0049243364 -0.059092037 0.0 -0.07386505 -0.08371372 -0.093562394 -0.07386505 -0.06401637 0.0049243364 -0.024621682 -0.009848673 -0.08863805 -0.049243364 -0.044319026 -0.054167703 -0.1477301
000080 f7 f5 01 fc fb f2 f8 dc f6 f5 00 f9 f9 03 e7 ff
       -0.044319026 -0.054167703 0.0049243364 -0.019697346 -0.024621682 -0.068940714 -0.03939469 -0.1772761 -0.049243364 -0.054167703 0.0 -0.034470357 -0.034470357 0.014773009 -0.12310841 -0.0049243364
000090 07 f3 f8 fa ef fe f9 f9 e9 fd 0c fd f9 ff 03 04
       0.034470357 -0.06401637 -0.03939469 -0.029546019 -0.08371372 -0.009848673 -0.034470357 -0.034470357 -0.11325974 -0.014773009 0.059092037 -0.014773009 -0.034470357 -0.0049243364 0.014773009 0.019697346
0000a0 f3 04 f8 f5 19 fe fa 06 ef fa 00 00 f8 e4 f8 f8
       -0.06401637 0.019697346 -0.03939469 -0.054167703 0.12310841 -0.009848673 -0.029546019 0.029546019 -0.08371372 -0.029546019 0.0 0.0 -0.03939469 -0.13788143 -0.03939469 -0.03939469
0000b0 02 f3 f4 e8 df f9 f2 f2 00 f8 05 f5 08 f1 f7 f6
       0.009848673 -0.06401637 -0.059092037 -0.118184075 -0.16250311 -0.034470357 -0.068940714 -0.068940714 0.0 -0.03939469 0.024621682 -0.054167703 0.03939469 -0.07386505 -0.044319026 -0.049243364
0000c0 04 08 f6 f7 fb 07 f0 bd fe dc f5 f2 fa 05 eb 12
       0.019697346 0.03939469 -0.049243364 -0.044319026 -0.024621682 0.034470357 -0.07878938 -0.32993054 -0.009848673 -0.1772761 -0.054167703 -0.068940714 -0.029546019 0.024621682 -0.10341106 0.08863805
0000d0 0e ed fd f8 04 fc 00 01 ee fe 03 01 fd f9 0f f7
       0.068940714 -0.093562394 -0.014773009 -0.03939469 0.019697346 -0.019697346 0.0 0.0049243364 -0.08863805 -0.009848673 0.014773009 0.0049243364 -0.014773009 -0.034470357 0.07386505 -0.044319026
0000e0 fc 0e f5 0f 14 ea fb eb f4 f7 ef f2 fa f0 fc fe
       -0.019697346 0.068940714 -0.054167703 0.07386505 0.09848673 -0.108335406 -0.024621682 -0.10341106 -0.059092037 -0.044319026 -0.08371372 -0.068940714 -0.029546019 -0.07878938 -0.019697346 -0.009848673
0000f0 04 f3 f0 03 07 e7 f9 e6 fa f5 ff f8 0f d7 f6 e7
       0.019697346 -0.06401637 -0.07878938 0.014773009 0.034470357 -0.12310841 -0.034470357 -0.12803274 -0.029546019 -0.054167703 -0.0049243364 -0.03939469 0.07386505 -0.2018978 -0.049243364 -0.12310841
