python/mnist.tflite (tflite, 116712 bytes, 6 tensors)

sequential/dense/BiasAdd/ReadVariableOp f4 [10]
00000000: c6e0 24ba 28bc 173e 4678 6b3d 72aa 2bbd
00000010: a851 c4bc b912 fe3c f2e7 c13a 4b7d 8f3d
00000020: f3c4 15be e96b 4fbd
-0.00062895974 0.1481787 0.05748775 -0.041910596 -0.023964718 0.031014787 0.0014793857 0.070063196
-0.14625911 -0.05064002

sequential/conv2d/BiasAdd/ReadVariableOp f4 [32]
00000000: 1bfd 343d 2105 36bc ae17 0abd 21bd 72bc
00000010: 2808 39bd bb53 9f3c 29e7 54bd 8ac9 cfbd
00000020: 1cad d63b b3e3 8fbd cbaa 4ebc 9428 68bd
00000030: 6049 91bb 1140 7eba 661f 90bc 2bb4 d5bc
00000040: 81a6 12bd 9c3d 73bd 763f bbb9 3363 81bc
00000050: 2f6c d23c 1a72 a2bc 872e fdbd 7eb7 2fbc
00000060: 58ee e8bb 5fdc 2ebd 2995 273d 7cbb 6a3b
00000070: 21fa 05bd 975d aabd 4657 babc dfbd dd3d
0.044186693 -0.011109621 -0.03371399 -0.0148156 -0.045173794 0.019449105 -0.051978264 -0.101458624
0.006551398 -0.07025852 -0.012613962 -0.056679323 -0.004433796 -0.00096988777 -0.017593097 -0.026086887
-0.03580332 -0.059384927 -0.00035714702 -0.015794372 0.025686352 -0.019829798 -0.1236239 -0.0107249
-0.007108491 -0.04269063 0.040913735 0.0035817316 -0.032709245 -0.08318632 -0.022746693 0.10827231

sequential/conv2d_1/BiasAdd/ReadVariableOp f4 [64]
00000000: a021 d63a a71b a3bc e74f 00bc 0f87 063d
00000010: babf 26bd 6d17 21bd 6aa1 06bd 4c99 463d
00000020: bb59 d5bd e188 5cbd 9051 e23b e45c 74bc
00000030: 8e94 8dbc cfe7 c9bd d055 7a3c 36de 51bd
00000040: fc95 f6bc 2dfb 91bc fede 9abd 3d97 063d
00000050: 25df 53bd ebcd 94bd a891 a4ba 91c8 04bd
00000060: 73b0 01bc 3203 7cbc 0cd1 cfbc e914 15bc
00000070: 38e3 e4bc 8414 0ebd 5fe3 c6bc d935 f53c
00000080: 221a acbc a43e 2fbd a6f7 87bb 30df 02bd
00000090: 5fc0 15bd 9ffc fcba 56f4 21bd 35b0 b7bc
000000a0: 6941 37bd 2e4d babc aa90 9fbc 7cf2 1abd
000000b0: 1e51 743c 5b0f 6dbd 2e45 ee3b f18c 0dbc
000000c0: 06d3 0fbd a533 acbb ed3f 33bc 4f98 953b
000000d0: fd5c 44bc a455 2e3d f024 79bd 045b 3ebc
000000e0: 7c48 67bd 043f 96bd 210d 8abd a7f3 13bd
000000f0: 4419 87bd 8239 69bd e556 5aba ce34 4cbd
0.0016336925 -0.019910647 -0.00783155 0.032843646 -0.04071019 -0.03932898 -0.03286878 0.04848604
-0.10417505 -0.053841475 0.0069066957 -0.014914725 -0.01728275 -0.09858667 0.015279248 -0.051237307
-0.030100815 -0.017819965 -0.07562064 0.032859076 -0.05172648 -0.07265838 -0.0012555616 -0.032417838
-0.007915604 -0.015381621 -0.025368236 -0.009099224 -0.027940378 -0.034687534 -0.02427834 0.029932903
-0.021008555 -0.042784348 -0.004149395 -0.03195113 -0.036560412 -0.0019301361 -0.039539658 -0.02242289
-0.044740114 -0.02274188 -0.01947816 -0.037828907 0.014911918 -0.057875972 0.0072714305 -0.00863956
-0.035113357 -0.00525518 -0.010940534 0.0045652757 -0.011985061 0.042562142 -0.060826242 -0.0116183795
-0.05646561 -0.07336238 -0.067407854 -0.036121037 -0.06596616 -0.05693961 -0.00083289883 -0.049855046

sequential/conv2d/Conv2D f4 [32, 3, 3, 1]
00000000: f95e 163e 3aa1 ee3d cb36 5e3e effb bbbd
00000010: 946f febc df1c 7ebc a5f0 8bbe 5bce 6fbe
00000020: 657d 81be d6b1 333e 66a0 6fbe b86d f9bd
00000030: b354 433e c4c8 23be 9456 cc3d 031c 00be
00000040: 5171 ffbc 8a2d 503e 4030 67be dc8b 82bd
00000050: 8fa3 513e 62a4 28be 8c0f 0fbd 406f 663e
00000060: 65cc 0b3e 3b45 2d3d 9d21 53bd 827a 0fbf
00000070: 1cc8 9ebe 6723 05bd 41be fbbd 1496 c63d
00000080: 1e86 ba3e 3996 46bb 78fe 6c3e 36bc 313e
00000090: 376d 73bd 58b6 df3d f1a1 653e 61d2 c2bd
000000a0: e549 963d 96f6 6bbb e8ca aebd d052 bb3d
000000b0: e8b3 07be a80e 41be 4466 9ebe 76f8 a3be
000000c0: d3d1 633e d085 5dbd 5c25 42bd 3126 183e
000000d0: f21a a33e cfc3 393e 4212 f3bd 01f3 6cbe
000000e0: 6f7b 6abd 314a 963d aebc 3a3e 7291 023e
000000f0: 8988 343d ed48 333e 2c74 6bbc 69d8 cd3d
00000100: d18f 7d3c ee65 c5bd 45cd 403e cbbc 69bc
00000110: b82f 1c3c 47c2 c43d a8cd d2bd b624 613d
00000120: c6af b13c 0d33 363e ebac 8a3e 97a5 27be
00000130: da91 463d edb8 ba3c 738e f0bd a595 c3be
00000140: daba a9be 299a fa3d 525a 08bd 91b3 e4bd
00000150: 59d2 393d ff5f 82bd 5cd0 1cbe c786 303c
00000160: 17b1 633d 7590 fa3d 4d4f 73bc 74fe 513d
00000170: 4b73 c9be 3234 4f3e 3582 393e 97f0 9fbd
00000180: 9e54 cbbd 179b 073e 4cbf 41bd 263d fb3d
00000190: ee01 40be 6d09 49be 873e f23d ea91 54bd
000001a0: c64b e33d e4f6 193e c416 1c3e dee7 aebd
000001b0: c5ef 5c3e bbc5 2a3e d769 f03d 8e87 623e
000001c0: ad8d f8bd fc5c 65be f724 1c3e 0fdb 80bd
000001d0: 4fd4 a4be 2818 4bbe 50b7 2abd ecdb 023e
000001e0: f526 073e 97ff 663e 6adc df3d 5eaf e73d
000001f0: 4d31 0bbe bd00 9fbe 4c49 31be 66c8 563d
00000200: c0e9 4dbe 8f95 be3d acdf 903d 4976 b53d
00000210: f416 82bd 7da6 27be 838c 143e 0565 21bd
00000220: 034a 59be 4b33 0c3e 0bf3 9ebd efbb f0bd
00000230: 3af2 353e c2c6 523e d3ee 1c3c 0108 803d
00000240: f956 1b3e 97ec c23d c870 cebd 1c72 7ebe
00000250: 4463 163e a5ec 853e ac71 babe 8e46 d6bc
00000260: 858e 873e fe47 a83d e382 e43c b50a d53d
00000270: 8b08 09be 7fb1 95bd c972 fd3d 5f89 853d
00000280: beb4 293d fd64 5ebe e9b3 713e 5023 593e
00000290: bf32 773e 66f9 78bd 30e5 56bd 7890 d33d
000002a0: a23e 85be c2d3 8cbe ff6e 9abd 53a9 193d
000002b0: c1f4 5dbd c61b 853c 6692 793e 1e06 a43c
000002c0: 8676 3ebe b2ed 813e a019 19bb 1e75 55be
000002d0: 2566 473e 6726 663e 8df2 183e ae3f 4a3e
000002e0: 7a67 d1bc c289 4cbe 86ea 63bc 2362 96bd
000002f0: 0520 babe 212c 19be f83e 06be c953 b0bd
00000300: fcc1 273e 2685 c3bd 2e3f 33bd ce8d fe3b
00000310: d0c5 0d3e 5e19 153e f024 6f3c 232c 2b3d
00000320: aee0 083e cfda 523d b384 12bd f609 563d
00000330: 3a38 883d 7586 6abd 62bc 27be 90b1 023e
00000340: c4b9 2f3d 043e 623e cb5f 22be 1b5f 9c3c
00000350: 18b5 363e 779d c5be d7bf a1bd 4af0 a93d
00000360: 8086 90be 9cb7 103d 7b07 683e 273c e83d
00000370: 05bd e23b 1162 7dbe 0956 f73c 9880 333e
00000380: 66d5 debd 367f ea3d b579 16bc 205e 223e
00000390: f4d2 5fbe 6405 a93d 70ba 8dbd 1a02 45be
000003a0: 1f10 933d ba6c eb3d bdaf 3abe 77b6 44bd
000003b0: 54cb 9f3e b104 afbe f13d f6bd ab9c 883e
000003c0: 8094 5cbe 1b32 a6bd 6c97 fe3d b3e9 fb3c
000003d0: 546e 77bc 15e0 8bbe c862 023e 6ae2 033d
000003e0: 93c4 afbe 0ba1 9a3e 21d3 423e e1b7 d4bc
000003f0: 361a bbbc 8659 0fbe a796 91bd aa25 143e
0.14684667 0.11651845 0.2170059 -0.09178912 -0.031059064 -0.015509813 -0.27332035 -0.23418562
-0.2529098 0.17548308 -0.23401031 -0.1217913 0.19075279 -0.15994555 0.09977451 -0.12510686
-0.031181963 0.20329872 -0.22577 -0.06374332 0.20472549 -0.16468957 -0.034926936 0.22503376
0.13652189 0.04230235 -0.051545728 -0.5604631 -0.31012046 -0.032504465 -0.122921474 0.09696594
0.36430448 -0.0030301942 0.23143947 0.17356953 -0.059430327 0.10923451 0.22425057 -0.09512783
0.07338313 -0.003600513 -0.08534795 0.091466546 -0.13252223 -0.18853247 -0.30937397 -0.32025498
0.2224801 -0.05408269 -0.04739891 0.14858319 0.31856495 0.18141101 -0.11868717 -0.23139574
-0.05724662 0.0733837 0.18236038 0.12750795 0.044075523 0.17508288 -0.014370959 0.100510426
0.015476183 -0.09638582 0.18828304 -0.014266203 0.009532861 0.09607368 -0.10293132 0.05496665
0.02169026 0.17792912 0.2708505 -0.16371761 0.04847894 0.022793258 -0.1174592 -0.38200107
-0.3315037 0.12236435 -0.03328926 -0.11167062 0.04536662 -0.06365966 -0.15313858 0.010774321
0.055588808 0.12234584 -0.01485045 0.051268056 -0.39345774 0.20234755 0.18116076 -0.07809561
-0.09928249 0.13242756 -0.047301576 0.122675225 -0.18750736 -0.19632502 0.118283324 -0.051896967
0.11098437 0.15035588 0.1524306 -0.08540319 0.2157584 0.1667699 0.11738937 0.22122023
-0.121363975 -0.22398752 0.15248476 -0.06291782 -0.3219323 -0.19833434 -0.041678727 0.12779206
0.13198455 0.22558437 0.109307125 0.113127455 -0.13593026 -0.3105525 -0.17313117 0.05243721
-0.201087 0.0930587 0.07073912 0.08860452 -0.06352034 -0.16372104 0.14506726 -0.03940298
-0.2121964 0.13691442 -0.077612005 -0.117545955 0.17768183 0.20583633 0.0095784245 0.062515266
0.15169896 0.09517782 -0.10080105 -0.24848217 0.14686304 0.26157108 -0.3641485 -0.02615669
0.2647592 0.082168564 0.027894443 0.10402433 -0.13382165 -0.07309245 0.12375409 0.06520342
0.041432135 -0.21718211 0.23603787 0.21204877 0.24140452 -0.06078472 -0.052464664 0.103302896
-0.26024348 -0.27505308 -0.07540702 0.037514996 -0.054188494 0.016248595 0.24372253 0.020022448
-0.185999 0.2537666 -0.002336122 -0.20845458 0.19472559 0.22475587 0.14936276 0.19750854
-0.025562037 -0.19974425 -0.013910895 -0.07342937 -0.36352554 -0.1495824 -0.13109958 -0.08609731
0.16382593 -0.095468804 -0.043761425 0.0077683693 0.1384499 0.14560458 0.014596209 0.04179014
0.13366958 0.051478203 -0.035771083 0.052255593 0.06651349 -0.057257134 -0.16380456 0.12763047
0.04290177 0.2209397 -0.15856855 0.019088319 0.1784252 -0.385967 -0.07897919 0.082977846
-0.28227615 0.035331354 0.22659104 0.11339598 0.0069195055 -0.2474444 0.030192392 0.17529523
-0.10880546 0.11450045 -0.009184291 0.15856218 -0.21857816 0.08252981 -0.06920326 -0.19239083
0.07180809 0.11495347 -0.18231101 -0.048025575 0.31209815 -0.34183267 -0.12023533 0.26682028
-0.21541023 -0.081150256 0.12431225 0.030751085 -0.015101988 -0.273194 0.12732995 0.032198347
-0.34329662 0.3020099 0.19025852 -0.025966587 -0.022839647 -0.13998994 -0.07108813 0.14467493

sequential/conv2d_1/Conv2D i1 [64, 3, 3, 32]
00000000: 0c0e fcd0 01dc def2 18f6 08de 0bea 0b0f
00000010: 2101 35e6 06e3 0a07 ba04 17d1 13e9 fad6
00000020: c50e ead1 04fd fdf8 b901 32f1 ddaf 07f3
00000030: 1edd df09 f7f6 e7f7 131a e825 06ff e6dd
00000040: a001 9ed2 c63e 0e0e b410 2f17 04d5 e5f7
00000050: c2b1 810c ef1a ba87 25d0 9124 e4d3 a4d9
00000060: 22f4 fcbe f4a3 bdd3 1aed ecd8 fff9 fafd
00000070: 070f 1bb5 05c9 0e22 ad10 1a9a 05e8 07ba
00000080: 07f8 f8de 02e2 fbf8 f5fa 31df bde0 1b02
00000090: 2512 1bc5 dfee 092a cd0b 22df f90a f9d3
000000a0: dc0c b6ce ee4f 1d0e cd01 250e dee8 01d1
000000b0: 27cb d6ed de1e efea fbf9 ae29 0601 cede
000000c0: fa0a 15ec f5e4 cdc1 11e0 b1b2 e709 cf01
000000d0: edea fcaa e7f0 f009 2710 1ba2 d2e8 f81a
000000e0: 09eb 42f6 20de e4d7 04ea 1ec8 c301 f532
000000f0: 05ff fdc6 e904 f231 101c 34f5 f316 fec9
12 14 -4 -48 1 -36 -34 -14
24 -10 8 -34 11 -22 11 15
33 1 53 -26 6 -29 10 7
-70 4 23 -47 19 -23 -6 -42
-59 14 -22 -47 4 -3 -3 -8
-71 1 50 -15 -35 -81 7 -13
30 -35 -33 9 -9 -10 -25 -9
19 26 -24 37 6 -1 -26 -35
-96 1 -98 -46 -58 62 14 14
-76 16 47 23 4 -43 -27 -9
-62 -79 -127 12 -17 26 -70 -121
37 -48 -111 36 -28 -45 -92 -39
34 -12 -4 -66 -12 -93 -67 -45
26 -19 -20 -40 -1 -7 -6 -3
7 15 27 -75 5 -55 14 34
-83 16 26 -102 5 -24 7 -70
7 -8 -8 -34 2 -30 -5 -8
-11 -6 49 -33 -67 -32 27 2
37 18 27 -59 -33 -18 9 42
-51 11 34 -33 -7 10 -7 -45
-36 12 -74 -50 -18 79 29 14
-51 1 37 14 -34 -24 1 -47
39 -53 -42 -19 -34 30 -17 -22
-5 -7 -82 41 6 1 -50 -34
-6 10 21 -20 -11 -28 -51 -63
17 -32 -79 -78 -25 9 -49 1
-19 -22 -4 -86 -25 -16 -16 9
39 16 27 -94 -46 -24 -8 26
9 -21 66 -10 32 -34 -28 -41
4 -22 30 -56 -61 1 -11 50
5 -1 -3 -58 -23 4 -14 49
16 28 52 -11 -13 22 -2 -55

sequential/dense/MatMul i1 [10, 9216] scale=0.0047339695 zero_point=0
00000000: 02fb 0000 0904 0bec fbff 0a01 fb02 0100
00000010: f9fb 05d7 0605 03fb 08fe fe0a 02fe 11ff
00000020: 0af6 02fa fa04 f3fd 04fd 01fb 01fe fb0a
00000030: 04ee fbdd fee9 0304 fef2 e601 0001 03ff
00000040: e5fa fe17 00f2 14eb f9ff 12ff eefa f8fc
00000050: f9ef 0803 f0ed e4fd fd03 f500 04fe 08f7
00000060: 17ec 01f1 fef4 00f7 fdfb f3fc 02fd fbfe
00000070: fce8 f7fd fef6 01e2 f1f2 f601 fcf3 f1f8
00000080: 06fe fc15 f3f6 0fd7 01ef 13ff f7f8 fdf3
00000090: f9f9 06fe 04fb eff3 08f6 fef5 01f5 01ed
000000a0: 04fb e5f3 f4f5 06f1 f8ea f7fb fff7 fa16
000000b0: fff8 f9ff fb05 fef8 fc02 0200 fa08 edfc
000000c0: e905 fb03 eaf8 13ee f600 f1f7 f3f8 fdfa
000000d0: 01fa 03d8 0401 02f8 18f8 03f5 faf7 12e4
000000e0: fc04 01fb f6f3 fdf9 fbfe 0002 00f9 0104
000000f0: ffe0 0001 f8e1 fdf0 f010 040a f9f3 0af9
0.009467939 -0.023669846 0.0 0.0 0.042605724 0.018935878 0.052073665 -0.094679385
-0.023669846 -0.0047339695 0.047339693 0.0047339695 -0.023669846 0.009467939 0.0047339695 0.0
-0.033137787 -0.023669846 0.023669846 -0.19409275 0.028403817 0.023669846 0.014201908 -0.023669846
0.037871756 -0.009467939 -0.009467939 0.047339693 0.009467939 -0.009467939 0.08047748 -0.0047339695
0.047339693 -0.047339693 0.009467939 -0.028403817 -0.028403817 0.018935878 -0.061541602 -0.014201908
0.018935878 -0.014201908 0.0047339695 -0.023669846 0.0047339695 -0.009467939 -0.023669846 0.047339693
0.018935878 -0.08521145 -0.023669846 -0.16568893 -0.009467939 -0.108881295 0.014201908 0.018935878
-0.009467939 -0.066275574 -0.123083204 0.0047339695 0.0 0.0047339695 0.014201908 -0.0047339695
-0.12781717 -0.028403817 -0.009467939 0.108881295 0.0 -0.066275574 0.094679385 -0.09941336
-0.033137787 -0.0047339695 0.08521145 -0.0047339695 -0.08521145 -0.028403817 -0.037871756 -0.018935878
-0.033137787 -0.08047748 0.037871756 0.014201908 -0.07574351 -0.08994542 -0.13255115 -0.014201908
-0.014201908 0.014201908 -0.052073665 0.0 0.018935878 -0.009467939 0.037871756 -0.042605724
0.108881295 -0.094679385 0.0047339695 -0.07100954 -0.009467939 -0.056807633 0.0 -0.042605724
-0.014201908 -0.023669846 -0.061541602 -0.018935878 0.009467939 -0.014201908 -0.023669846 -0.009467939
-0.018935878 -0.11361527 -0.042605724 -0.014201908 -0.009467939 -0.047339693 0.0047339695 -0.14201908
-0.07100954 -0.066275574 -0.047339693 0.0047339695 -0.018935878 -0.061541602 -0.07100954 -0.037871756
0.028403817 -0.009467939 -0.018935878 0.09941336 -0.061541602 -0.047339693 0.07100954 -0.19409275
0.0047339695 -0.08047748 0.08994542 -0.0047339695 -0.042605724 -0.037871756 -0.014201908 -0.061541602
-0.033137787 -0.033137787 0.028403817 -0.009467939 0.018935878 -0.023669846 -0.08047748 -0.061541602
0.037871756 -0.047339693 -0.009467939 -0.052073665 0.0047339695 -0.052073665 0.0047339695 -0.08994542
0.018935878 -0.023669846 -0.12781717 -0.061541602 -0.056807633 -0.052073665 0.028403817 -0.07100954
-0.037871756 -0.10414733 -0.042605724 -0.023669846 -0.0047339695 -0.042605724 -0.028403817 0.10414733
-0.0047339695 -0.037871756 -0.033137787 -0.0047339695 -0.023669846 0.023669846 -0.009467939 -0.037871756
-0.018935878 0.009467939 0.009467939 0.0 -0.028403817 0.037871756 -0.08994542 -0.018935878
-0.108881295 0.023669846 -0.023669846 0.014201908 -0.10414733 -0.037871756 0.08994542 -0.08521145
-0.047339693 0.0 -0.07100954 -0.042605724 -0.061541602 -0.037871756 -0.014201908 -0.028403817
0.0047339695 -0.028403817 0.014201908 -0.18935877 0.018935878 0.0047339695 0.009467939 -0.037871756
0.11361527 -0.037871756 0.014201908 -0.052073665 -0.028403817 -0.042605724 0.08521145 -0.13255115
-0.018935878 0.018935878 0.0047339695 -0.023669846 -0.047339693 -0.061541602 -0.014201908 -0.033137787
-0.023669846 -0.009467939 0.0 0.009467939 0.0 -0.033137787 0.0047339695 0.018935878
-0.0047339695 -0.15148702 0.0 0.0047339695 -0.037871756 -0.14675306 -0.014201908 -0.07574351
-0.07574351 0.07574351 0.018935878 0.047339693 -0.033137787 -0.061541602 0.047339693 -0.033137787
